…
hange with every successive layer:</p><figure class="highlight python"><table><tr><td class="gutter hljs"><div class="hljs code-wrapper"><pre><span class="line">1</span><br></pre></div></td><td class="code"><div class="hljs code-wrapper"><pre><code class="hljs python">model.summary()<br></code></pre></div></td></tr></table></figure><div class="hljs code-wrapper"><pre><code>_________________________________________________________________Layer (type)                 Output Shape              Param #   =================================================================conv2d_1 (Conv2D)            (None, 148, 148, 32)      896       _________________________________________________________________max_pooling2d_1 (MaxPooling2 (None, 74, 74, 32)        0         _________________________________________________________________conv2d_2 (Conv2D)            (None, 72, 72, 64)        18496     _________________________________________________________________max_pooling2d_2 (MaxPooling2 (None, 36, 36, 64)        0         _________________________________________________________________conv2d_3 (Conv2D)            (None, 34, 34, 128)       73856     _________________________________________________________________max_pooling2d_3 (MaxPooling2 (None, 17, 17, 128)       0         _________________________________________________________________conv2d_4 (Conv2D)            (None, 15, 15, 128)       147584    _________________________________________________________________max_pooling2d_4 (MaxPooling2 (None, 7, 7, 128)         0         _________________________________________________________________flatten_1 (Flatten)          (None, 6272)              0         _________________________________________________________________dense_1 (Dense)              (None, 512)               3211776   _________________________________________________________________dense_2 (Dense)              (None, 1)                 513       =================================================================Total params: 3,453,121Trainable params: 3,453,121Non-trainable params: 0_________________________________________________________________</code></pre></div><p>For our compilation step, we’ll go with the <code>RMSprop</code> optimizer as usual. Since we ended our network with a single sigmoid unit, we will<br>use binary crosse
…
rchitecture of our convnet so far:</p><figure class="highlight python"><table><tr><td class="gutter hljs"><div class="hljs code-wrapper"><pre><span class="line">1</span><br></pre></div></td><td class="code"><div class="hljs code-wrapper"><pre><code class="hljs python">model.summary()<br></code></pre></div></td></tr></table></figure><div class="hljs code-wrapper"><pre><code>_________________________________________________________________Layer (type)                 Output Shape              Param #   =================================================================conv2d_1 (Conv2D)            (None, 26, 26, 32)        320       _________________________________________________________________max_pooling2d_1 (MaxPooling2 (None, 13, 13, 32)        0         _________________________________________________________________conv2d_2 (Conv2D)            (None, 11, 11, 64)        18496     _________________________________________________________________max_pooling2d_2 (MaxPooling2 (None, 5, 5, 64)          0         _________________________________________________________________conv2d_3 (Conv2D)            (None, 3, 3, 64)          36928     =================================================================Total params: 55,744Trainable params: 55,744Non-trainable params: 0_________________________________________________________________</code></pre></div><p>You can see above that the output of every <code>Conv2D</code> and <code>MaxPooling2D</code> layer is a 3D tensor of shape <code>(height, width, channels)</code>. The width<br>
…
’s what our network<br>looks like:</p><figure class="highlight python"><table><tr><td class="gutter hljs"><div class="hljs code-wrapper"><pre><span class="line">1</span><br></pre></div></td><td class="code"><div class="hljs code-wrapper"><pre><code class="hljs python">model.summary()<br></code></pre></div></td></tr></table></figure><div class="hljs code-wrapper"><pre><code>_________________________________________________________________Layer (type)                 Output Shape              Param #   =================================================================conv2d_1 (Conv2D)            (None, 26, 26, 32)        320       _________________________________________________________________max_pooling2d_1 (MaxPooling2 (None, 13, 13, 32)        0         _________________________________________________________________conv2d_2 (Conv2D)            (None, 11, 11, 64)        18496     _________________________________________________________________max_pooling2d_2 (MaxPooling2 (None, 5, 5, 64)          0         _________________________________________________________________conv2d_3 (Conv2D)            (None, 3, 3, 64)          36928     _________________________________________________________________flatten_1 (Flatten)          (None, 576)               0         _________________________________________________________________dense_1 (Dense)              (None, 64)                36928     _________________________________________________________________dense_2 (Dense)              (None, 10)                650       =================================================================Total params: 93,322Trainable params: 93,322Non-trainable params: 0_________________________________________________________________</code></pre></div><p>As you can see, our <code>(3, 3, 64)</code> outputs were flattened into vectors of shape <code>(576,)</code>, before going through two <code>Dense</code> layers.</p><p>Now, l
…
